…
I1028 21:03:24.714685  9784 upgrade_proto.cpp:66] Attempting to upgrade input file specified using deprecated input fields: model/det1.prototxt
I1028 21:03:24.722687  9784 upgrade_proto.cpp:69] Successfully upgraded file specified using deprecated input fields.
W1028 21:03:24.722687] Note that future Caffe releases will only support input layers and not input fields.
I1028 21:03:24.728687  9784 net.cpp:49] Initializing net from parameters: 
name: "PNet"
state {
  phase: TEST
}
layer {
  name: "input"
  type: "Input"
  top: "data"
  input_param {
    shape {
      dim: 1
      dim: 3
      dim: 12
      dim: 12
    }
  }
}
layer {
  name: "conv1"
  type: "Convolution"
  bottom: "data"
  top: "conv1"
  param {
    lr_mult: 1
    decay_mult: 1
  }
  param {
    lr_mult: 2
    decay_mult: 0
  }
  convolution_param {
    num_output: 10
    kernel_size: 3
    stride: 1
    weight_filler {
      type: "xavier"
    }
    bias_filler {
      type: "constant"
      value: 0
    }
  }
}
layer {
  name: "PReLU1"
  type: "PReLU"
  bottom: "conv1"
  top: "conv1"
}
layer {
  name: "pool1"
  type: "Pooling"
  bottom: "conv1"
  top: "pool1"
  pooling_param {
    pool: MAX
    kernel_size: 2
    stride: 2
  }
}
layer {
  name: "conv2"
  type: "Convolution"
  bottom: "pool1"
  top: "conv2"
  param {
    lr_mult: 1
    decay_mult: 1
  }
  param {
    lr_mult: 2
    decay_mult: 0
  }
  convolution_param {
    num_output: 16
    kernel_size: 3
    stride: 1
    weight_filler {
      type: "xavier"
    }
    bias_filler {
      type: "constant"
      value: 0
    }
  }
}
layer {
  name: "PReLU2"
  type: "PReLU"
  bottom: "conv2"
  top: "conv2"
}
layer {
  name: "conv3"
  type: "Convolution"
  bottom: "conv2"
  top: "conv3"
  param {
    lr_mult: 1
    decay_mult: 1
  }
  param {
    lr_mult: 2
    decay_mult: 0
  }
  convolution_param {
    num_output: 32
    kernel_size: 3
    stride: 1
    weight_filler {
      type: "xavier"
    }
    bias_filler {
      type: "constant"
      value: 0
    }
  }
}
layer {
  name: "PReLU3"
  type: "PReLU"
  bottom: "conv3"
  top: "conv3"
}
layer {
  name: "conv4-1"
  type: "Convolution"
  bottom: "conv3"
  top: "conv4-1"
  param {
    lr_mult: 1
    decay_mult: 1
  }
  param {
    lr_mult: 2
    decay_mult: 0
  }
  convolution_param {
    num_output: 2
    kernel_size: 1
    stride: 1
    weight_filler {
      type: "xavier"
    }
    bias_filler {
      type: "constant"
      value: 0
    }
  }
}
layer {
  name: "conv4-2"
  type: "Convolution"
  bottom: "conv3"
  top: "conv4-2"
  param {
    lr_mult: 1
    decay_mult: 1
  }
  param {
    lr_mult: 2
    decay_mult: 0
  }
  convolution_param {
    num_output: 4
    kernel_size: 1
    stride: 1
    weight_filler {
      type: "xavier"
    }
    bias_filler {
      type: "constant"
      value: 0
    }
  }
}
layer {
  name: "prob1"
  type: "Softmax"
  bottom: "conv4-1"
  top: "prob1"
}
I1028 21:03:24.728687  9784 layer_factory.hpp:77] Creating layer input
I1028 21:03:24.728687  9784 net.cpp:91] Creating Layer input
I1028 21:03:24.728687  9784 net.cpp:399] input -> data
I1028 21:03:24.774689  9784 net.cpp:141] Setting up input
I1028 21:03:24.774689  9784 net.cpp:148] Top shape: 1 3 12 12 (432)
I1028 21:03:24.774689  9784 net.cpp:156] Memory required for data: 1728
I1028 21:03:24.774689  9784 layer_factory.hpp:77] Creating layer conv1
I1028 21:03:24.774689  9784 net.cpp:91] Creating Layer conv1
I1028 21:03:24.774689  9784 net.cpp:425] conv1 <- data
I1028 21:03:24.774689  9784 net.cpp:399] conv1 -> conv1
I1028 21:03:24.994701  9784 net.cpp:141] Setting up conv1
I1028 21:03:24.994701  9784 net.cpp:148] Top shape: 1 10 10 10 (1000)
I1028 21:03:24.994701  9784 net.cpp:156] Memory required for data: 5728
I1028 21:03:24.994701  9784 layer_factory.hpp:77] Creating layer PReLU1
I1028 21:03:24.994701  9784 net.cpp:91] Creating Layer PReLU1
I1028 21:03:24.994701  9784 net.cpp:425] PReLU1 <- conv1
I1028 21:03:24.994701  9784 net.cpp:386] PReLU1 -> conv1 (in-place)
I1028 21:03:24.994701  9784 net.cpp:141] Setting up PReLU1
I1028 21:03:24.994701  9784 net.cpp:148] Top shape: 1 10 10 10 (1000)
I1028 21:03:24.994701  9784 net.cpp:156] Memory required for data: 9728
I1028 21:03:24.994701  9784 layer_factory.hpp:77] Creating layer pool1
I1028 21:03:24.994701  9784 net.cpp:91] Creating Layer pool1
I1028 21:03:24.994701  9784 net.cpp:425] pool1 <- conv1
I1028 21:03:24.994701  9784 net.cpp:399] pool1 -> pool1
I1028 21:03:24.994701  9784 net.cpp:141] Setting up pool1
I1028 21:03:24.994701  9784 net.cpp:148] Top shape: 1 10 5 5 (250)
I1028 21:03:24.994701  9784 net.cpp:156] Memory required for data: 10728
I1028 21:03:24.994701  9784 layer_factory.hpp:77] Creating layer conv2
I1028 21:03:24.994701  9784 net.cpp:91] Creating Layer conv2
I1028 21:03:24.994701  9784 net.cpp:425] conv2 <- pool1
I1028 21:03:24.994701  9784 net.cpp:399] conv2 -> conv2
I1028 21:03:24.996701  9784 net.cpp:141] Setting up conv2
I1028 21:03:24.996701  9784 net.cpp:148] Top shape: 1 16 3 3 (144)
I1028 21:03:24.996701  9784 net.cpp:156] Memory required for data: 11304
I1028 21:03:24.996701  9784 layer_factory.hpp:77] Creating layer PReLU2
I1028 21:03:24.996701  9784 net.cpp:91] Creating Layer PReLU2
I1028 21:03:24.996701  9784 net.cpp:425] PReLU2 <- conv2
I1028 21:03:24.996701  9784 net.cpp:386] PReLU2 -> conv2 (in-place)
I1028 21:03:24.996701  9784 net.cpp:141] Setting up PReLU2
I1028 21:03:24.996701  9784 net.cpp:148] Top shape: 1 16 3 3 (144)
I1028 21:03:24.996701  9784 net.cpp:156] Memory required for data: 11880
I1028 21:03:24.996701  9784 layer_factory.hpp:77] Creating layer conv3
I1028 21:03:24.996701  9784 net.cpp:91] Creating Layer conv3
I1028 21:03:24.996701  9784 net.cpp:425] conv3 <- conv2
I1028 21:03:24.996701  9784 net.cpp:399] conv3 -> conv3
I1028 21:03:24.998703  9784 net.cpp:141] Setting up conv3
I1028 21:03:24.998703  9784 net.cpp:148] Top shape: 1 32 1 1 (32)
I1028 21:03:24.998703  9784 net.cpp:156] Memory required for data: 12008
I1028 21:03:24.998703  9784 layer_factory.hpp:77] Creating layer PReLU3
I1028 21:03:24.998703  9784 net.cpp:91] Creating Layer PReLU3
I1028 21:03:24.998703  9784 net.cpp:425] PReLU3 <- conv3
I1028 21:03:24.998703  9784 net.cpp:386] PReLU3 -> conv3 (in-place)
I1028 21:03:24.998703  9784 net.cpp:141] Setting up PReLU3
I1028 21:03:24.998703  9784 net.cpp:148] Top shape: 1 32 1 1 (32)
I1028 21:03:24.998703  9784 net.cpp:156] Memory required for data: 12136
I1028 21:03:24.998703  9784 layer_factory.hpp:77] Creating layer conv3_PReLU3_0_split
I1028 21:03:24.998703  9784 net.cpp:91] Creating Layer conv3_PReLU3_0_split
I1028 21:03:24.998703  9784 net.cpp:425] conv3_PReLU3_0_split <- conv3
I1028 21:03:24.998703  9784 net.cpp:399] conv3_PReLU3_0_split -> conv3_PReLU3_0_split_0
I1028 21:03:24.998703  9784 net.cpp:399] conv3_PReLU3_0_split -> conv3_PReLU3_0_split_1
I1028 21:03:24.998703  9784 net.cpp:141] Setting up conv3_PReLU3_0_split
I1028 21:03:24.998703  9784 net.cpp:148] Top shape: 1 32 1 1 (32)
I1028 21:03:24.998703  9784 net.cpp:148] Top shape: 1 32 1 1 (32)
I1028 21:03:24.998703  9784 net.cpp:156] Memory required for data: 12392
I1028 21:03:24.998703  9784 layer_factory.hpp:77] Creating layer conv4-1
I1028 21:03:24.998703  9784 net.cpp:91] Creating Layer conv4-1
I1028 21:03:24.998703  9784 net.cpp:425] conv4-1 <- conv3_PReLU3_0_split_0
I1028 21:03:24.998703  9784 net.cpp:399] conv4-1 -> conv4-1
I1028 21:03:25.000702  9784 net.cpp:141] Setting up conv4-1
I1028 21:03:25.000702  9784 net.cpp:148] Top shape: 1 2 1 1 (2)
I1028 21:03:25.000702  9784 net.cpp:156] Memory required for data: 12400
I1028 21:03:25.000702  9784 layer_factory.hpp:77] Creating layer conv4-2
I1028 21:03:25.000702  9784 net.cpp:91] Creating Layer conv4-2
I1028 21:03:25.000702  9784 net.cpp:425] conv4-2 <- conv3_PReLU3_0_split_1
I1028 21:03:25.000702  9784 net.cpp:399] conv4-2 -> conv4-2
I1028 21:03:25.001703  9784 net.cpp:141] Setting up conv4-2
I1028 21:03:25.001703  9784 net.cpp:148] Top shape: 1 4 1 1 (4)
I1028 21:03:25.001703  9784 net.cpp:156] Memory required for data: 12416
I1028 21:03:25.001703  9784 layer_factory.hpp:77] Creating layer prob1
I1028 21:03:25.001703  9784 net.cpp:91] Creating Layer prob1
I1028 21:03:25.001703  9784 net.cpp:425] prob1 <- conv4-1
I1028 21:03:25.001703  9784 net.cpp:399] prob1 -> prob1
I1028 21:03:25.001703  9784 net.cpp:141] Setting up prob1
I1028 21:03:25.001703  9784 net.cpp:148] Top shape: 1 2 1 1 (2)
I1028 21:03:25.001703  9784 net.cpp:156] Memory required for data: 12424
I1028 21:03:25.001703  9784 net.cpp:219] prob1 does not need backward computation.
I1028 21:03:25.001703  9784 net.cpp:219] conv4-2 does not need backward computation.
I1028 21:03:25.001703  9784 net.cpp:219] conv4-1 does not need backward computation.
I1028 21:03:25.001703  9784 net.cpp:219] conv3_PReLU3_0_split does not need backward computation.
…
I1028 21:03:25.002702  9784 net.cpp:752] Ignoring source layer conv4-1_conv4-1_0_split
I1028 21:03:25.002702  9784 net.cpp:752] Ignoring source layer loss1
I1028 21:03:25.002702  9784 net.cpp:752] Ignoring source layer loss2
I1028 21:03:25.002702  9784 net.cpp:752] Ignoring source layer accuracy1
I1028 21:03:25.003702  9784 net.cpp:49] Initializing net from parameters: 
name: "RNet"
state {
  phase: TEST
}
layer {
  name: "data"
  type: "MemoryData"
  top: "data"
  top: "label"
  include {
    phase: TEST
  }
  memory_data_param {
    batch_size: 1
    channels: 3
    height: 24
    width: 24
  }
}
layer {
  name: "conv1"
  type: "Convolution"
  bottom: "data"
  top: "conv1"
  param {
    lr_mult: 0
    decay_mult: 0
  }
  param {
    lr_mult: 0
    decay_mult: 0
  }
  convolution_param {
    num_output: 28
    kernel_size: 3
    stride: 1
    weight_filler {
      type: "xavier"
    }
    bias_filler {
      type: "constant"
      value: 0
    }
  }
}
layer {
  name: "prelu1"
  type: "PReLU"
  bottom: "conv1"
  top: "conv1"
  propagate_down: true
}
layer {
  name: "pool1"
  type: "Pooling"
  bottom: "conv1"
  top: "pool1"
  pooling_param {
    pool: MAX
    kernel_size: 3
    stride: 2
  }
}
layer {
  name: "conv2"
  type: "Convolution"
  bottom: "pool1"
  top: "conv2"
  param {
    lr_mult: 0
    decay_mult: 0
  }
  param {
    lr_mult: 0
    decay_mult: 0
  }
  convolution_param {
    num_output: 48
    kernel_size: 3
    stride: 1
    weight_filler {
      type: "xavier"
    }
    bias_filler {
      type: "constant"
      value: 0
    }
  }
}
layer {
  name: "prelu2"
  type: "PReLU"
  bottom: "conv2"
  top: "conv2"
  propagate_down: true
}
layer {
  name: "pool2"
  type: "Pooling"
  bottom: "conv2"
  top: "pool2"
  pooling_param {
    pool: MAX
    kernel_size: 3
    stride: 2
  }
}
layer {
  name: "conv3"
  type: "Convolution"
  bottom: "pool2"
  top: "conv3"
  param {
    lr_mult: 0
    decay_mult: 0
  }
  param {
    lr_mult: 0
    decay_mult: 0
  }
  convolution_param {
    num_output: 64
    kernel_size: 2
    stride: 1
    weight_filler {
      type: "xavier"
    }
    bias_filler {
      type: "constant"
      value: 0
    }
  }
}
layer {
  name: "prelu3"
  type: "PReLU"
  bottom: "conv3"
  top: "conv3"
  propagate_down: true
}
layer {
  name: "conv4"
  type: "InnerProduct"
  bottom: "conv3"
  top: "conv4"
  param {
    lr_mult: 0
    decay_mult: 0
  }
  param {
    lr_mult: 0
    decay_mult: 0
  }
  inner_product_param {
    num_output: 128
    weight_filler {
      type: "xavier"
    }
    bias_filler {
      type: "constant"
      value: 0
    }
  }
}
layer {
  name: "prelu4"
  type: "PReLU"
  bottom: "conv4"
  top: "conv4"
}
layer {
  name: "conv5-1"
  type: "InnerProduct"
  bottom: "conv4"
  top: "conv5-1"
  param {
    lr_mult: 0
    decay_mult: 0
  }
  param {
    lr_mult: 0
    decay_mult: 0
  }
  inner_product_param {
    num_output: 2
    weight_filler {
      type: "xavier"
    }
    bias_filler {
      type: "constant"
      value: 0
    }
  }
}
layer {
  name: "conv5-2"
  type: "InnerProduct"
  bottom: "conv4"
  top: "conv5-2"
  param {
    lr_mult: 1
    decay_mult: 1
  }
  param {
    lr_mult: 2
    decay_mult: 1
  }
  inner_product_param {
    num_output: 4
    weight_filler {
      type: "xavier"
    }
    bias_filler {
      type: "constant"
      value: 0
    }
  }
}
layer {
  name: "prob1"
  type: "Softmax"
  bottom: "conv5-1"
  top: "prob1"
}
I1028 21:03:25.003702  9784 layer_factory.hpp:77] Creating layer data
I1028 21:03:25.003702  9784 net.cpp:91] Creating Layer data
I1028 21:03:25.003702  9784 net.cpp:399] data -> data
I1028 21:03:25.003702  9784 net.cpp:399] data -> label
I1028 21:03:25.003702  9784 net.cpp:141] Setting up data
I1028 21:03:25.003702  9784 net.cpp:148] Top shape: 1 3 24 24 (1728)
I1028 21:03:25.003702  9784 net.cpp:148] Top shape: 1 (1)
I1028 21:03:25.003702  9784 net.cpp:156] Memory required for data: 6916
I1028 21:03:25.003702  9784 layer_factory.hpp:77] Creating layer conv1
I1028 21:03:25.003702  9784 net.cpp:91] Creating Layer conv1
I1028 21:03:25.003702  9784 net.cpp:425] conv1 <- data
I1028 21:03:25.003702  9784 net.cpp:399] conv1 -> conv1
I1028 21:03:25.005702  9784 net.cpp:141] Setting up conv1
I1028 21:03:25.005702  9784 net.cpp:148] Top shape: 1 28 22 22 (13552)
I1028 21:03:25.005702  9784 net.cpp:156] Memory required for data: 61124
I1028 21:03:25.005702  9784 layer_factory.hpp:77] Creating layer prelu1
I1028 21:03:25.005702  9784 net.cpp:91] Creating Layer prelu1
I1028 21:03:25.005702  9784 net.cpp:425] prelu1 <- conv1
I1028 21:03:25.005702  9784 net.cpp:386] prelu1 -> conv1 (in-place)
I1028 21:03:25.005702  9784 net.cpp:141] Setting up prelu1
I1028 21:03:25.005702  9784 net.cpp:148] Top shape: 1 28 22 22 (13552)
I1028 21:03:25.005702  9784 net.cpp:156] Memory required for data: 115332
I1028 21:03:25.005702  9784 layer_factory.hpp:77] Creating layer pool1
I1028 21:03:25.005702  9784 net.cpp:91] Creating Layer pool1
I1028 21:03:25.005702  9784 net.cpp:425] pool1 <- conv1
I1028 21:03:25.005702  9784 net.cpp:399] pool1 -> pool1
I1028 21:03:25.005702  9784 net.cpp:141] Setting up pool1
I1028 21:03:25.005702  9784 net.cpp:148] Top shape: 1 28 11 11 (3388)
I1028 21:03:25.005702  9784 net.cpp:156] Memory required for data: 128884
I1028 21:03:25.005702  9784 layer_factory.hpp:77] Creating layer conv2
I1028 21:03:25.006702  9784 net.cpp:91] Creating Layer conv2
I1028 21:03:25.006702  9784 net.cpp:425] conv2 <- pool1
I1028 21:03:25.006702  9784 net.cpp:399] conv2 -> conv2
I1028 21:03:25.007702  9784 net.cpp:141] Setting up conv2
I1028 21:03:25.007702  9784 net.cpp:148] Top shape: 1 48 9 9 (3888)
I1028 21:03:25.007702  9784 net.cpp:156] Memory required for data: 144436
I1028 21:03:25.007702  9784 layer_factory.hpp:77] Creating layer prelu2
I1028 21:03:25.007702  9784 net.cpp:91] Creating Layer prelu2
I1028 21:03:25.007702  9784 net.cpp:425] prelu2 <- conv2
I1028 21:03:25.007702  9784 net.cpp:386] prelu2 -> conv2 (in-place)
I1028 21:03:25.007702  9784 net.cpp:141] Setting up prelu2
I1028 21:03:25.007702  9784 net.cpp:148] Top shape: 1 48 9 9 (3888)
I1028 21:03:25.007702  9784 net.cpp:156] Memory required for data: 159988
I1028 21:03:25.007702  9784 layer_factory.hpp:77] Creating layer pool2
I1028 21:03:25.007702  9784 net.cpp:91] Creating Layer pool2
I1028 21:03:25.007702  9784 net.cpp:425] pool2 <- conv2
I1028 21:03:25.007702  9784 net.cpp:399] pool2 -> pool2
I1028 21:03:25.007702  9784 net.cpp:141] Setting up pool2
I1028 21:03:25.007702  9784 net.cpp:148] Top shape: 1 48 4 4 (768)
I1028 21:03:25.007702  9784 net.cpp:156] Memory required for data: 163060
I1028 21:03:25.007702  9784 layer_factory.hpp:77] Creating layer conv3
I1028 21:03:25.007702  9784 net.cpp:91] Creating Layer conv3
I1028 21:03:25.007702  9784 net.cpp:425] conv3 <- pool2
I1028 21:03:25.007702  9784 net.cpp:399] conv3 -> conv3
I1028 21:03:25.009702  9784 net.cpp:141] Setting up conv3
I1028 21:03:25.009702  9784 net.cpp:148] Top shape: 1 64 3 3 (576)
I1028 21:03:25.009702  9784 net.cpp:156] Memory required for data: 165364
I1028 21:03:25.009702  9784 layer_factory.hpp:77] Creating layer prelu3
I1028 21:03:25.009702  9784 net.cpp:91] Creating Layer prelu3
I1028 21:03:25.009702  9784 net.cpp:425] prelu3 <- conv3
I1028 21:03:25.009702  9784 net.cpp:386] prelu3 -> conv3 (in-place)
I1028 21:03:25.009702  9784 net.cpp:141] Setting up prelu3
I1028 21:03:25.009702  9784 net.cpp:148] Top shape: 1 64 3 3 (576)
I1028 21:03:25.009702  9784 net.cpp:156] Memory required for data: 167668
I1028 21:03:25.009702  9784 layer_factory.hpp:77] Creating layer conv4
I1028 21:03:25.009702  9784 net.cpp:91] Creating Layer conv4
I1028 21:03:25.009702  9784 net.cpp:425] conv4 <- conv3
I1028 21:03:25.009702  9784 net.cpp:399] conv4 -> conv4
I1028 21:03:25.010702  9784 net.cpp:141] Setting up conv4
I1028 21:03:25.010702  9784 net.cpp:148] Top shape: 1 128 (128)
I1028 21:03:25.010702  9784 net.cpp:156] Memory required for data: 168180
I1028 21:03:25.010702  9784 layer_factory.hpp:77] Creating layer prelu4
I1028 21:03:25.010702  9784 net.cpp:91] Creating Layer prelu4
I1028 21:03:25.010702  9784 net.cpp:425] prelu4 <- conv4
I1028 21:03:25.010702  9784 net.cpp:386] prelu4 -> conv4 (in-place)
I1028 21:03:25.010702  9784 net.cpp:141] Setting up prelu4
I1028 21:03:25.010702  9784 net.cpp:148] Top shape: 1 128 (128)
I1028 21:03:25.010702  9784 net.cpp:156] Memory required for data: 168692
I1028 21:03:25.010702  9784 layer_factory.hpp:77] Creating layer conv4_prelu4_0_split
I1028 21:03:25.010702  9784 net.cpp:91] Creating Layer conv4_prelu4_0_split
I1028 21:03:25.010702  9784 net.cpp:425] conv4_prelu4_0_split <- conv4
I1028 21:03:25.010702  9784 net.cpp:399] conv4_prelu4_0_split -> conv4_prelu4_0_split_0
I1028 21:03:25.010702  9784 net.cpp:399] conv4_prelu4_0_split -> conv4_prelu4_0_split_1
I1028 21:03:25.010702  9784 net.cpp:141] Setting up conv4_prelu4_0_split
I1028 21:03:25.010702  9784 net.cpp:148] Top shape: 1 128 (128)
I1028 21:03:25.010702  9784 net.cpp:148] Top shape: 1 128 (128)
I1028 21:03:25.010702  9784 net.cpp:156] Memory required for data: 169716
I1028 21:03:25.010702  9784 layer_factory.hpp:77] Creating layer conv5-1
I1028 21:03:25.010702  9784 net.cpp:91] Creating Layer conv5-1
I1028 21:03:25.010702  9784 net.cpp:425] conv5-1 <- conv4_prelu4_0_split_0
I1028 21:03:25.010702  9784 net.cpp:399] conv5-1 -> conv5-1
I1028 21:03:25.010702  9784 net.cpp:141] Setting up conv5-1
I1028 21:03:25.010702  9784 net.cpp:148] Top shape: 1 2 (2)
I1028 21:03:25.010702  9784 net.cpp:156] Memory required for data: 169724
I1028 21:03:25.010702  9784 layer_factory.hpp:77] Creating layer conv5-2
I1028 21:03:25.010702  9784 net.cpp:91] Creating Layer conv5-2
I1028 21:03:25.010702  9784 net.cpp:425] conv5-2 <- conv4_prelu4_0_split_1
I1028 21:03:25.010702  9784 net.cpp:399] conv5-2 -> conv5-2
I1028 21:03:25.010702  9784 net.cpp:141] Setting up conv5-2
I1028 21:03:25.010702  9784 net.cpp:148] Top shape: 1 4 (4)
I1028 21:03:25.010702  9784 net.cpp:156] Memory required for data: 169740
I1028 21:03:25.010702  9784 layer_factory.hpp:77] Creating layer prob1
I1028 21:03:25.010702  9784 net.cpp:91] Creating Layer prob1
I1028 21:03:25.010702  9784 net.cpp:425] prob1 <- conv5-1
I1028 21:03:25.010702  9784 net.cpp:399] prob1 -> prob1
I1028 21:03:25.011703  9784 net.cpp:141] Setting up prob1
I1028 21:03:25.011703  9784 net.cpp:148] Top shape: 1 2 (2)
I1028 21:03:25.011703  9784 net.cpp:156] Memory required for data: 169748
I1028 21:03:25.011703  9784 net.cpp:219] prob1 does not need backward computation.
I1028 21:03:25.011703  9784 net.cpp:219] conv5-2 does not need backward computation.
I1028 21:03:25.011703  9784 net.cpp:219] conv5-1 does not need backward computation.
I1028 21:03:25.011703  9784 net.cpp:219] conv4_prelu4_0_split does not need backward computation.
…
I1028 21:03:25.013702  9784 net.cpp:752] Ignoring source layer loss3
I1028 21:03:25.013702  9784 net.cpp:752] Ignoring source layer loss2
I1028 21:03:25.013702  9784 net.cpp:752] Ignoring source layer loss1
I1028 21:03:25.013702  9784 net.cpp:752] Ignoring source layer accuracy1
I1028 21:03:25.013702  9784 net.cpp:49] Initializing net from parameters: 
name: "ONet"
state {
  phase: TEST
}
layer {
  name: "data"
  type: "MemoryData"
  top: "data"
  top: "label"
  include {
    phase: TEST
  }
  memory_data_param {
    batch_size: 1
    channels: 3
    height: 48
    width: 48
  }
}
layer {
  name: "conv1"
  type: "Convolution"
  bottom: "data"
  top: "conv1"
  param {
    lr_mult: 1
    decay_mult: 1
  }
  param {
    lr_mult: 2
    decay_mult: 1
  }
  convolution_param {
    num_output: 32
    kernel_size: 3
    stride: 1
    weight_filler {
      type: "xavier"
    }
    bias_filler {
      type: "constant"
      value: 0
    }
  }
}
layer {
  name: "prelu1"
  type: "PReLU"
  bottom: "conv1"
  top: "conv1"
}
layer {
  name: "pool1"
  type: "Pooling"
  bottom: "conv1"
  top: "pool1"
  pooling_param {
    pool: MAX
    kernel_size: 3
    stride: 2
  }
}
layer {
  name: "conv2"
  type: "Convolution"
  bottom: "pool1"
  top: "conv2"
  param {
    lr_mult: 1
    decay_mult: 1
  }
  param {
    lr_mult: 2
    decay_mult: 1
  }
  convolution_param {
    num_output: 64
    kernel_size: 3
    stride: 1
    weight_filler {
      type: "xavier"
    }
    bias_filler {
      type: "constant"
      value: 0
    }
  }
}
layer {
  name: "prelu2"
  type: "PReLU"
  bottom: "conv2"
  top: "conv2"
}
layer {
  name: "pool2"
  type: "Pooling"
  bottom: "conv2"
  top: "pool2"
  pooling_param {
    pool: MAX
    kernel_size: 3
    stride: 2
  }
}
layer {
  name: "conv3"
  type: "Convolution"
  bottom: "pool2"
  top: "conv3"
  param {
    lr_mult: 1
    decay_mult: 1
  }
  param {
    lr_mult: 2
    decay_mult: 1
  }
  convolution_param {
    num_output: 64
    kernel_size: 3
    weight_filler {
      type: "xavier"
    }
    bias_filler {
      type: "constant"
      value: 0
    }
  }
}
layer {
  name: "prelu3"
  type: "PReLU"
  bottom: "conv3"
  top: "conv3"
}
layer {
  name: "pool3"
  type: "Pooling"
  bottom: "conv3"
  top: "pool3"
  pooling_param {
    pool: MAX
    kernel_size: 2
    stride: 2
  }
}
layer {
  name: "conv4"
  type: "Convolution"
  bottom: "pool3"
  top: "conv4"
  param {
    lr_mult: 1
    decay_mult: 1
  }
  param {
    lr_mult: 2
    decay_mult: 1
  }
  convolution_param {
    num_output: 128
    kernel_size: 2
    weight_filler {
      type: "xavier"
    }
    bias_filler {
      type: "constant"
      value: 0
    }
  }
}
layer {
  name: "prelu4"
  type: "PReLU"
  bottom: "conv4"
  top: "conv4"
}
layer {
  name: "conv5"
  type: "InnerProduct"
  bottom: "conv4"
  top: "conv5"
  param {
    lr_mult: 1
    decay_mult: 1
  }
  param {
    lr_mult: 2
    decay_mult: 1
  }
  inner_product_param {
    num_output: 256
    weight_filler {
      type: "xavier"
    }
    bias_filler {
      type: "constant"
      value: 0
    }
  }
}
layer {
  name: "drop5"
  type: "Dropout"
  bottom: "conv5"
  top: "conv5"
  dropout_param {
    dropout_ratio: 0.25
  }
}
layer {
  name: "prelu5"
  type: "PReLU"
  bottom: "conv5"
  top: "conv5"
}
layer {
  name: "conv6-1"
  type: "InnerProduct"
  bottom: "conv5"
  top: "conv6-1"
  param {
    lr_mult: 1
    decay_mult: 1
  }
  param {
    lr_mult: 2
    decay_mult: 1
  }
  inner_product_param {
    num_output: 2
    weight_filler {
      type: "xavier"
    }
    bias_filler {
      type: "constant"
      value: 0
    }
  }
}
layer {
  name: "conv6-2"
  type: "InnerProduct"
  bottom: "conv5"
  top: "conv6-2"
  param {
    lr_mult: 1
    decay_mult: 1
  }
  param {
    lr_mult: 2
    decay_mult: 1
  }
  inner_product_param {
    num_output: 4
    weight_filler {
      type: "xavier"
    }
    bias_filler {
      type: "constant"
      value: 0
    }
  }
}
layer {
  name: "conv6-3"
  type: "InnerProduct"
  bottom: "conv5"
  top: "conv6-3"
  param {
    lr_mult: 1
    decay_mult: 1
  }
  param {
    lr_mult: 2
    decay_mult: 1
  }
  inner_product_param {
    num_output: 10
    weight_filler {
      type: "xavier"
    }
    bias_filler {
      type: "constant"
      value: 0
    }
  }
}
layer {
  name: "prob1"
  type: "Softmax"
  bottom: "conv6-1"
  top: "prob1"
}
I1028 21:03:25.013702  9784 layer_factory.hpp:77] Creating layer data
I1028 21:03:25.013702  9784 net.cpp:91] Creating Layer data
I1028 21:03:25.013702  9784 net.cpp:399] data -> data
I1028 21:03:25.013702  9784 net.cpp:399] data -> label
I1028 21:03:25.013702  9784 net.cpp:141] Setting up data
I1028 21:03:25.013702  9784 net.cpp:148] Top shape: 1 3 48 48 (6912)
I1028 21:03:25.013702  9784 net.cpp:148] Top shape: 1 (1)
I1028 21:03:25.013702  9784 net.cpp:156] Memory required for data: 27652
I1028 21:03:25.013702  9784 layer_factory.hpp:77] Creating layer conv1
I1028 21:03:25.013702  9784 net.cpp:91] Creating Layer conv1
I1028 21:03:25.013702  9784 net.cpp:425] conv1 <- data
I1028 21:03:25.014703  9784 net.cpp:399] conv1 -> conv1
I1028 21:03:25.015703  9784 net.cpp:141] Setting up conv1
I1028 21:03:25.015703  9784 net.cpp:148] Top shape: 1 32 46 46 (67712)
I1028 21:03:25.015703  9784 net.cpp:156] Memory required for data: 298500
I1028 21:03:25.015703  9784 layer_factory.hpp:77] Creating layer prelu1
I1028 21:03:25.015703  9784 net.cpp:91] Creating Layer prelu1
I1028 21:03:25.015703  9784 net.cpp:425] prelu1 <- conv1
I1028 21:03:25.015703  9784 net.cpp:386] prelu1 -> conv1 (in-place)
I1028 21:03:25.015703  9784 net.cpp:141] Setting up prelu1
I1028 21:03:25.015703  9784 net.cpp:148] Top shape: 1 32 46 46 (67712)
I1028 21:03:25.015703  9784 net.cpp:156] Memory required for data: 569348
I1028 21:03:25.015703  9784 layer_factory.hpp:77] Creating layer pool1
I1028 21:03:25.015703  9784 net.cpp:91] Creating Layer pool1
I1028 21:03:25.015703  9784 net.cpp:425] pool1 <- conv1
I1028 21:03:25.015703  9784 net.cpp:399] pool1 -> pool1
I1028 21:03:25.015703  9784 net.cpp:141] Setting up pool1
I1028 21:03:25.015703  9784 net.cpp:148] Top shape: 1 32 23 23 (16928)
I1028 21:03:25.015703  9784 net.cpp:156] Memory required for data: 637060
I1028 21:03:25.015703  9784 layer_factory.hpp:77] Creating layer conv2
I1028 21:03:25.015703  9784 net.cpp:91] Creating Layer conv2
I1028 21:03:25.015703  9784 net.cpp:425] conv2 <- pool1
I1028 21:03:25.015703  9784 net.cpp:399] conv2 -> conv2
I1028 21:03:25.017704  9784 net.cpp:141] Setting up conv2
I1028 21:03:25.017704  9784 net.cpp:148] Top shape: 1 64 21 21 (28224)
I1028 21:03:25.017704  9784 net.cpp:156] Memory required for data: 749956
I1028 21:03:25.017704  9784 layer_factory.hpp:77] Creating layer prelu2
I1028 21:03:25.017704  9784 net.cpp:91] Creating Layer prelu2
I1028 21:03:25.017704  9784 net.cpp:425] prelu2 <- conv2
I1028 21:03:25.017704  9784 net.cpp:386] prelu2 -> conv2 (in-place)
I1028 21:03:25.017704  9784 net.cpp:141] Setting up prelu2
I1028 21:03:25.017704  9784 net.cpp:148] Top shape: 1 64 21 21 (28224)
I1028 21:03:25.017704  9784 net.cpp:156] Memory required for data: 862852
I1028 21:03:25.017704  9784 layer_factory.hpp:77] Creating layer pool2
I1028 21:03:25.018703  9784 net.cpp:91] Creating Layer pool2
I1028 21:03:25.018703  9784 net.cpp:425] pool2 <- conv2
I1028 21:03:25.018703  9784 net.cpp:399] pool2 -> pool2
I1028 21:03:25.018703  9784 net.cpp:141] Setting up pool2
I1028 21:03:25.018703  9784 net.cpp:148] Top shape: 1 64 10 10 (6400)
I1028 21:03:25.018703  9784 net.cpp:156] Memory required for data: 888452
I1028 21:03:25.018703  9784 layer_factory.hpp:77] Creating layer conv3
I1028 21:03:25.018703  9784 net.cpp:91] Creating Layer conv3
I1028 21:03:25.018703  9784 net.cpp:425] conv3 <- pool2
I1028 21:03:25.018703  9784 net.cpp:399] conv3 -> conv3
I1028 21:03:25.019703  9784 net.cpp:141] Setting up conv3
I1028 21:03:25.019703  9784 net.cpp:148] Top shape: 1 64 8 8 (4096)
I1028 21:03:25.019703  9784 net.cpp:156] Memory required for data: 904836
I1028 21:03:25.019703  9784 layer_factory.hpp:77] Creating layer prelu3
I1028 21:03:25.019703  9784 net.cpp:91] Creating Layer prelu3
I1028 21:03:25.019703  9784 net.cpp:425] prelu3 <- conv3
I1028 21:03:25.019703  9784 net.cpp:386] prelu3 -> conv3 (in-place)
I1028 21:03:25.019703  9784 net.cpp:141] Setting up prelu3
I1028 21:03:25.019703  9784 net.cpp:148] Top shape: 1 64 8 8 (4096)
I1028 21:03:25.019703  9784 net.cpp:156] Memory required for data: 921220
I1028 21:03:25.019703  9784 layer_factory.hpp:77] Creating layer pool3
I1028 21:03:25.019703  9784 net.cpp:91] Creating Layer pool3
I1028 21:03:25.019703  9784 net.cpp:425] pool3 <- conv3
I1028 21:03:25.019703  9784 net.cpp:399] pool3 -> pool3
I1028 21:03:25.019703  9784 net.cpp:141] Setting up pool3
I1028 21:03:25.019703  9784 net.cpp:148] Top shape: 1 64 4 4 (1024)
I1028 21:03:25.019703  9784 net.cpp:156] Memory required for data: 925316
I1028 21:03:25.019703  9784 layer_factory.hpp:77] Creating layer conv4
I1028 21:03:25.019703  9784 net.cpp:91] Creating Layer conv4
I1028 21:03:25.019703  9784 net.cpp:425] conv4 <- pool3
I1028 21:03:25.019703  9784 net.cpp:399] conv4 -> conv4
I1028 21:03:25.021703  9784 net.cpp:141] Setting up conv4
I1028 21:03:25.021703  9784 net.cpp:148] Top shape: 1 128 3 3 (1152)
I1028 21:03:25.021703  9784 net.cpp:156] Memory required for data: 929924
I1028 21:03:25.021703  9784 layer_factory.hpp:77] Creating layer prelu4
I1028 21:03:25.021703  9784 net.cpp:91] Creating Layer prelu4
I1028 21:03:25.021703  9784 net.cpp:425] prelu4 <- conv4
I1028 21:03:25.021703  9784 net.cpp:386] prelu4 -> conv4 (in-place)
I1028 21:03:25.021703  9784 net.cpp:141] Setting up prelu4
I1028 21:03:25.021703  9784 net.cpp:148] Top shape: 1 128 3 3 (1152)
I1028 21:03:25.021703  9784 net.cpp:156] Memory required for data: 934532
I1028 21:03:25.021703  9784 layer_factory.hpp:77] Creating layer conv5
I1028 21:03:25.021703  9784 net.cpp:91] Creating Layer conv5
I1028 21:03:25.021703  9784 net.cpp:425] conv5 <- conv4
I1028 21:03:25.021703  9784 net.cpp:399] conv5 -> conv5
I1028 21:03:25.024703  9784 net.cpp:141] Setting up conv5
I1028 21:03:25.024703  9784 net.cpp:148] Top shape: 1 256 (256)
I1028 21:03:25.024703  9784 net.cpp:156] Memory required for data: 935556
I1028 21:03:25.024703  9784 layer_factory.hpp:77] Creating layer drop5
I1028 21:03:25.024703  9784 net.cpp:91] Creating Layer drop5
I1028 21:03:25.024703  9784 net.cpp:425] drop5 <- conv5
I1028 21:03:25.024703  9784 net.cpp:386] drop5 -> conv5 (in-place)
I1028 21:03:25.024703  9784 net.cpp:141] Setting up drop5
I1028 21:03:25.024703  9784 net.cpp:148] Top shape: 1 256 (256)
I1028 21:03:25.024703  9784 net.cpp:156] Memory required for data: 936580
I1028 21:03:25.024703  9784 layer_factory.hpp:77] Creating layer prelu5
I1028 21:03:25.024703  9784 net.cpp:91] Creating Layer prelu5
I1028 21:03:25.024703  9784 net.cpp:425] prelu5 <- conv5
I1028 21:03:25.024703  9784 net.cpp:386] prelu5 -> conv5 (in-place)
I1028 21:03:25.024703  9784 net.cpp:141] Setting up prelu5
I1028 21:03:25.024703  9784 net.cpp:148] Top shape: 1 256 (256)
I1028 21:03:25.024703  9784 net.cpp:156] Memory required for data: 937604
I1028 21:03:25.024703  9784 layer_factory.hpp:77] Creating layer conv5_prelu5_0_split
I1028 21:03:25.024703  9784 net.cpp:91] Creating Layer conv5_prelu5_0_split
I1028 21:03:25.024703  9784 net.cpp:425] conv5_prelu5_0_split <- conv5
I1028 21:03:25.024703  9784 net.cpp:399] conv5_prelu5_0_split -> conv5_prelu5_0_split_0
I1028 21:03:25.024703  9784 net.cpp:399] conv5_prelu5_0_split -> conv5_prelu5_0_split_1
I1028 21:03:25.024703  9784 net.cpp:399] conv5_prelu5_0_split -> conv5_prelu5_0_split_2
I1028 21:03:25.024703  9784 net.cpp:141] Setting up conv5_prelu5_0_split
I1028 21:03:25.024703  9784 net.cpp:148] Top shape: 1 256 (256)
I1028 21:03:25.024703  9784 net.cpp:148] Top shape: 1 256 (256)
I1028 21:03:25.024703  9784 net.cpp:148] Top shape: 1 256 (256)
I1028 21:03:25.024703  9784 net.cpp:156] Memory required for data: 940676
I1028 21:03:25.024703  9784 layer_factory.hpp:77] Creating layer conv6-1
I1028 21:03:25.024703  9784 net.cpp:91] Creating Layer conv6-1
I1028 21:03:25.024703  9784 net.cpp:425] conv6-1 <- conv5_prelu5_0_split_0
I1028 21:03:25.024703  9784 net.cpp:399] conv6-1 -> conv6-1
I1028 21:03:25.024703  9784 net.cpp:141] Setting up conv6-1
I1028 21:03:25.024703  9784 net.cpp:148] Top shape: 1 2 (2)
I1028 21:03:25.024703  9784 net.cpp:156] Memory required for data: 940684
I1028 21:03:25.024703  9784 layer_factory.hpp:77] Creating layer conv6-2
I1028 21:03:25.024703  9784 net.cpp:91] Creating Layer conv6-2
I1028 21:03:25.024703  9784 net.cpp:425] conv6-2 <- conv5_prelu5_0_split_1
I1028 21:03:25.024703  9784 net.cpp:399] conv6-2 -> conv6-2
I1028 21:03:25.024703  9784 net.cpp:141] Setting up conv6-2
I1028 21:03:25.024703  9784 net.cpp:148] Top shape: 1 4 (4)
I1028 21:03:25.024703  9784 net.cpp:156] Memory required for data: 940700
I1028 21:03:25.024703  9784 layer_factory.hpp:77] Creating layer conv6-3
I1028 21:03:25.024703  9784 net.cpp:91] Creating Layer conv6-3
I1028 21:03:25.024703  9784 net.cpp:425] conv6-3 <- conv5_prelu5_0_split_2
I1028 21:03:25.024703  9784 net.cpp:399] conv6-3 -> conv6-3
I1028 21:03:25.024703  9784 net.cpp:141] Setting up conv6-3
I1028 21:03:25.024703  9784 net.cpp:148] Top shape: 1 10 (10)
I1028 21:03:25.024703  9784 net.cpp:156] Memory required for data: 940740
I1028 21:03:25.024703  9784 layer_factory.hpp:77] Creating layer prob1
I1028 21:03:25.024703  9784 net.cpp:91] Creating Layer prob1
I1028 21:03:25.024703  9784 net.cpp:425] prob1 <- conv6-1
I1028 21:03:25.024703  9784 net.cpp:399] prob1 -> prob1
I1028 21:03:25.025703  9784 net.cpp:141] Setting up prob1
I1028 21:03:25.025703  9784 net.cpp:148] Top shape: 1 2 (2)
I1028 21:03:25.025703  9784 net.cpp:156] Memory required for data: 940748
I1028 21:03:25.025703  9784 net.cpp:219] prob1 does not need backward computation.
I1028 21:03:25.025703  9784 net.cpp:219] conv6-3 does not need backward computation.
I1028 21:03:25.025703  9784 net.cpp:219] conv6-2 does not need backward computation.
I1028 21:03:25.025703  9784 net.cpp:219] conv6-1 does not need backward computation.
…
